converted_model.tflite (tflite, 348632 bytes, 11 tensors)

sequential_17/dense_64/BiasAdd/ReadVariableOp/resource f4 [50]
000000 8b 3f 16 3d 7e c6 29 bc b8 0b 1d 3d 03 4e 56 bc
       0.036681693 -0.010362266 0.038341254 -0.013080123
000010 81 9f 71 bc e7 12 22 3d 00 00 00 00 be 2a fb bb
       -0.014747501 0.039568808 0.0 -0.0076650074
000020 53 62 27 3d ee c6 c4 bb 14 ed 21 3d 5a 7c 22 3d
       0.040865254 -0.0060051596 0.039532736 0.039669372
000030 00 00 00 00 e2 96 72 bc 12 f9 e6 3c 00 00 00 00
       0.0 -0.014806481 0.028194938 0.0
000040 1b 57 d4 bc 00 00 00 00 db eb 15 bd d9 40 22 3d
       -0.025920441 0.0 -0.036601882 0.039612625
000050 00 00 00 00 da 85 d4 3c 6c 2e 08 3d dc 6c 1e 3d
       0.0 0.025942732 0.033247396 0.038678035
000060 15 06 26 3d 2d 23 0b 3d 02 32 6b bc 3f 28 a7 3c
       0.040533144 0.033969093 -0.0143551845 0.020404933
000070 e6 a8 83 bc 00 00 00 00 10 27 d9 3c 00 00 00 00
       -0.016071748 0.0 0.026507884 0.0
000080 5a 13 20 3d c2 3b 2c bc 36 38 1a 3d ad de 29 bc
       0.039080955 -0.010512294 0.037651263 -0.010368031
000090 00 00 00 00 b9 57 05 3d 00 00 00 00 e0 b7 12 bc
       0.0 0.032554362 0.0 -0.008954972
0000a0 97 96 0a bc 61 67 17 3d 45 95 fb bc 1c d0 f8 3c
       -0.008458755 0.036963824 -0.030710826 0.030372672
0000b0 93 23 e2 3c 00 00 00 00 f8 81 44 bc 00 00 00 00
       0.027604854 0.0 -0.011993878 0.0
0000c0 ef f6 15 3d 04 63 85 3c
       0.036612447 0.016282566

sequential_17/dense_63/BiasAdd/ReadVariableOp/resource f4 [100]
000000 b7 ae 15 bb 97 c8 c4 bb 53 37 4e bc 00 00 00 00
       -0.0022839734 -0.0060053575 -0.0125864325 0.0
000010 f0 d7 c0 3c 00 00 00 00 69 57 29 3c e4 b9 0a bc
       0.023540467 0.0 0.010335782 -0.008467171
000020 b5 c6 0b bb 80 26 ce 3c 87 1b f2 bb ed dc a0 3b
       -0.0021328155 0.025164843 -0.0073885354 0.004909149
000030 00 00 00 00 00 00 00 00 07 6d bc 3c 6e 10 95 3c
       0.0 0.0 0.023001207 0.01819631
000040 ac f3 22 bd 66 ee 01 bc fa a2 80 bc da b2 62 3c
       -0.039783165 -0.007930374 -0.015702713 0.013836587
000050 00 00 00 00 00 00 00 00 4b 19 84 bb ff 6a 0a bc
       0.0 0.0 -0.0040313355 -0.008448361
000060 00 00 00 00 00 00 00 00 7f 5a 6e 3c 69 f7 05 bc
       0.0 0.0 0.014547943 -0.008176663
000070 15 3d ba 3c 00 00 00 00 59 ac 74 3c 00 00 00 00
       0.022734204 0.0 0.014933669 0.0
000080 46 f5 5f 3c 00 00 00 00 91 8e 11 3c c4 32 74 3c
       0.013669318 0.0 0.008884088 0.014904682
000090 e7 be 64 3c ee 72 f2 bb 00 00 00 00 00 00 00 00
       0.01396153 -0.0073989546 0.0 0.0
0000a0 00 00 00 00 e5 8b a7 bb 00 00 00 00 95 8f c1 3b
       0.0 -0.0051131123 0.0 0.005907009
0000b0 24 4b 6c bc a3 99 d4 3c 00 00 00 00 00 00 00 00
       -0.014422212 0.025952166 0.0 0.0
0000c0 18 67 df bb 20 5d 07 bc 17 44 f2 3c a8 53 ab bb
       -0.0068177097 -0.008261949 0.029573483 -0.0052284785
0000d0 00 00 00 00 00 00 00 00 5e 3e 16 bb 84 13 aa 3c
       0.0 0.0 -0.0022925357 0.020761259
0000e0 d0 d1 a5 3a 40 70 9c bc de 1b 70 3c a6 af a9 bb
       0.001265103 -0.019096494 0.014655082 -0.0051784096
0000f0 00 00 00 00 c9 e2 ab 3c 00 00 00 00 33 26 df 3c
       0.0 0.020982163 0.0 0.027239894
000100 00 00 00 00 00 00 00 00 00 00 00 00 93 ec 67 bc
       0.0 0.0 0.0 -0.014155525
000110 d5 0d b3 3c 00 00 00 00 97 82 c3 3c f7 50 97 3c
       0.021857182 0.0 0.023865981 0.018471224
000120 ae ac cc 3c 71 d2 9b 3c 64 e6 c7 3c 38 7f 14 3c
       0.024984684 0.019021245 0.024401851 0.009063534
000130 57 c8 c4 bb 00 00 00 00 dc a1 4f bc e9 4a d7 bc
       -0.0060053277 0.0 -0.012672868 -0.026280837
000140 04 26 b6 bb c2 56 9b 3c f9 2d da 3c 75 28 42 bc
       -0.005558731 0.018962268 0.02663325 -0.011850466
000150 78 d8 6d 3c 34 5c d7 3b 00 00 00 00 4f 55 e5 3c
       0.014516942 0.0065722708 0.0 0.02799478
000160 39 09 e4 3c 3a e3 36 bd 07 b4 c2 3b 00 00 00 00
       0.027836429 -0.044650294 0.005941871 0.0
000170 00 00 00 00 00 00 00 00 00 00 00 00 b2 8c 09 bc
       0.0 0.0 0.0 -0.008395361
000180 3b 8c dd 3c 9c 0c cf 3c fb 5b 69 bd 77 de a8 3c
       0.027044406 0.025274567 -0.056972485 0.020613892

sequential_17/dense_62/BiasAdd/ReadVariableOp/resource f4 [200]
000000 27 a6 73 bb 00 00 00 00 00 00 00 00 00 00 00 00
       -0.0037177892 0.0 0.0 0.0
000010 7d 61 f3 bb a8 70 c3 b9 dd 9e 9a 3b a0 4d 14 bc
       -0.007427393 -0.00037277234 0.004718645 -0.00905171
000020 37 56 cc bb 00 00 00 00 5c a4 90 bc 5d c5 c4 bb
       -0.0062358635 0.0 -0.017656498 -0.006004973
000030 59 a0 55 bb 6d 06 0c bd 00 00 00 00 3a 60 50 bc
       -0.0032596795 -0.034185816 0.0 -0.012718255
000040 00 00 00 00 0f 10 54 bc 83 53 3d bc 66 4b 09 bd
       0.0 -0.012943282 -0.011555555 -0.03351917
000050 2d 83 01 bb 00 00 00 00 60 e6 cf bb 00 00 00 00
       -0.0019762025 0.0 -0.0063446015 0.0
000060 66 a5 c1 3b 5d 54 5e 3a 7b ba 46 bc 0e c3 15 39
       0.0059096096 0.0008481199 -0.012129421 0.00014282411
000070 50 53 02 3b 00 00 00 00 00 00 00 00 3d 62 c0 bc
       0.0019886084 0.0 0.0 -0.023484344
000080 00 00 00 00 00 00 00 00 00 00 00 00 00 00 00 00
       0.0 0.0 0.0 0.0
000090 1e 2f e0 bb 55 09 27 bc 06 a4 60 bc 20 fc 00 bc
       -0.0068415543 -0.010195096 -0.013710981 -0.007872611
0000a0 81 c0 c4 bb 00 00 00 00 57 ff 40 bd 00 00 00 00
       -0.0060043936 0.0 -0.04711851 0.0
0000b0 cd 14 56 bc fd 11 30 bc 80 3f 2d bd ce 63 06 bc
       -0.013066483 -0.010746476 -0.042296886 -0.008202506
0000c0 98 32 e0 bb 00 00 00 00 bf 6f e6 bc 00 00 00 00
       -0.0068419687 0.0 -0.028129457 0.0
0000d0 f9 f6 09 bc b0 c6 c4 bb 04 23 ee bb 00 00 00 00
       -0.008420699 -0.0060051307 -0.007267358 0.0
0000e0 00 00 00 00 00 00 00 00 89 7a fc bc 26 4a 08 bc
       0.0 0.0 -0.030820148 -0.00831846
0000f0 49 21 0c bb 00 00 00 00 00 00 00 00 18 94 6a bb
       -0.0021382144 0.0 0.0 -0.0035793837
000100 00 00 00 00 3d 32 3d bc 00 00 00 00 00 00 00 00
       0.0 -0.011547622 0.0 0.0
000110 4c 24 94 bb 00 00 00 00 d0 03 a5 b7 d9 8a e8 39
       -0.0045209285 0.0 -1.9671308e-05 0.00044353938
000120 98 88 12 bc 36 24 a6 3a 00 00 00 00 6b 4b 10 bd
       -0.008943699 0.0012675587 0.0 -0.035228174
000130 b8 55 e0 bb 0d 91 cf bc 20 d7 34 bc 00 00 00 00
       -0.006846156 -0.02533772 -0.011037618 0.0
000140 6b bb 0f bc 00 00 00 00 2e ec 8f bb 00 00 00 00
       -0.008772711 0.0 -0.0043921685 0.0
000150 26 28 23 bc b0 a0 3a bc 00 00 00 00 00 00 00 00
       -0.009958303 -0.01139085 0.0 0.0
000160 37 cf 24 bc 00 00 00 00 00 00 00 00 00 00 00 00
       -0.0100591695 0.0 0.0 0.0
000170 24 f5 07 bc 00 00 00 00 e2 0f 7b bc 98 09 29 3b
       -0.008298192 0.0 -0.015323611 0.0025793072
000180 de 5c 01 bc 00 00 00 00 ce c3 9d bc 9b c2 ac bc
       -0.007895676 0.0 -0.019258406 -0.021088889
000190 9e a4 09 bc d2 aa 94 3b 00 00 00 00 0f 42 99 bc
       -0.008401064 0.004536965 0.0 -0.018708257
0001a0 8c 5d 09 bc 21 87 6d 3a ac ae 22 bd 92 e3 27 bc
       -0.00838412 0.00090609683 -0.03971736 -0.010247128
0001b0 6e d4 f5 bb 00 00 00 00 c9 50 a8 bb 97 b2 a8 bb
       -0.00750213 0.0 -0.0051365835 -0.0051482427
0001c0 00 00 00 00 13 90 d8 bc 00 00 00 00 00 00 00 00
       0.0 -0.026435887 0.0 0.0
0001d0 20 18 79 bc 00 00 00 00 00 00 00 00 80 88 af bc
       -0.015203506 0.0 0.0 -0.021427393
0001e0 7b df 0a bd ee 53 18 3a 02 cf 6f bc 00 00 00 00
       -0.033904534 0.00058108463 -0.014636757 0.0
0001f0 99 15 90 bb b5 c5 c4 bb ac 8a f3 bc 86 c7 e0 bb
       -0.004397106 -0.006005014 -0.02972921 -0.0068597225
000200 00 00 00 00 5b 93 1c bc 00 00 00 00 00 00 00 00
       0.0 -0.009556617 0.0 0.0
000210 00 00 00 00 00 00 00 00 00 00 00 00 34 c4 4a bd
       0.0 0.0 0.0 -0.04950352
000220 00 00 00 00 7f 38 31 bc 42 dd 46 3b 00 00 00 00
       0.0 -0.010816692 0.0030344282 0.0
000230 77 99 34 bd 23 d8 d7 bb 26 a7 b9 bb 00 00 00 00
       -0.044091668 -0.006587045 -0.0056656776 0.0
000240 00 00 00 00 d2 98 56 bd 18 c1 1f bb 00 00 00 00
       0.0 -0.052391835 -0.0024376567 0.0
000250 ca c6 c4 bb 00 00 00 00 00 00 00 00 38 ad 71 3b
       -0.006005143 0.0 0.0 0.0036876928
000260 00 00 00 00 3e b0 0a bc 00 00 00 00 89 9f 4c 3a
       0.0 -0.008464871 0.0 0.0007805755
000270 00 00 00 00 94 64 6a bc 4f 26 00 3b 00 00 00 00
       0.0 -0.014306206 0.0019554084 0.0
000280 00 00 00 00 00 00 00 00 00 00 00 00 00 00 00 00
       0.0 0.0 0.0 0.0
000290 00 00 00 00 07 e3 01 ba 00 00 00 00 e6 a5 85 3b
       0.0 -0.0004954789 0.0 0.0040786145
0002a0 00 00 00 00 70 e0 db bb 44 2c 36 bc 47 07 54 bc
       0.0 -0.0067101046 -0.011118952 -0.012941188
0002b0 55 7e c4 bb 00 00 00 00 00 00 00 00 00 00 00 00
       -0.0059965053 0.0 0.0 0.0
0002c0 4a 06 ca bc f0 5a e6 bb 00 00 00 00 e0 dc 09 bc
       -0.024661202 -0.0070298836 0.0 -0.008414477
0002d0 00 00 00 00 00 00 00 00 37 bb 88 bb a2 bc 3c bc
       0.0 0.0 -0.0041727084 -0.011519583
0002e0 00 00 00 00 d8 ea 3e bc a6 e6 7d ba 44 33 72 3a
       0.0 -0.011652671 -0.00096855534 0.00092392066
0002f0 08 d0 d5 bb dc 8c d6 bc 55 c0 46 bc 00 00 00 00
       -0.0065250434 -0.026190214 -0.0121308165 0.0
000300 ad bc c4 bb 21 e2 a4 3a 00 00 00 00 00 00 00 00
       -0.006003937 0.0012579599 0.0 0.0
000310 c4 2f 8d bc 62 cb 0e 3b 00 00 00 00 00 00 00 00
       -0.01723469 0.0021788706 0.0 0.0

sequential_17/dense_61/BiasAdd/ReadVariableOp/resource f4 [300]
000000 00 00 00 00 6c 9a 08 bd 94 7e f6 bc 10 cb 44 bd
       0.0 -0.033350393 -0.030089654 -0.048045218
000010 7a f1 0f bd 00 00 00 00 00 00 00 00 00 00 00 00
       -0.0351424 0.0 0.0 0.0
000020 00 00 00 00 00 00 00 00 00 00 00 00 e2 09 44 bc
       0.0 0.0 0.0 -0.011965247
000030 00 00 00 00 ad 1d 0f bd ab f0 49 bd 00 00 00 00
       0.0 -0.03494041 -0.049301784 0.0
000040 31 9c 68 bd 00 00 00 00 00 00 00 00 00 00 00 00
       -0.05678958 0.0 0.0 0.0
000050 2a 71 14 bd 1d 9c 29 bd c9 52 49 bd 00 00 00 00
       -0.036240734 -0.041408647 -0.049151216 0.0
000060 a1 0a 93 bd 00 00 00 00 56 d6 97 bd 00 00 00 00
       -0.07179762 0.0 -0.07413928 0.0
000070 00 00 00 00 69 d3 30 bd c8 56 1c bd 00 00 00 00
       0.0 -0.043170366 -0.0381687 0.0
000080 00 00 00 00 00 00 00 00 00 00 00 00 36 69 0f bd
       0.0 0.0 0.0 -0.035012446
000090 b4 66 dc bc 54 8d 33 bd 3c 3c 0a bd d6 76 2e bd
       -0.026904441 -0.043835953 -0.03374885 -0.0425938
0000a0 00 00 00 00 66 8a 6b bd 6c 75 08 bd 5b 3d 24 bd
       0.0 -0.057505034 -0.033315107 -0.040097576
0000b0 5d 05 fb bc a0 a6 5d bd 00 00 00 00 00 00 00 00
       -0.030642206 -0.054113984 0.0 0.0
0000c0 00 00 00 00 a0 fc 3a bd 57 d2 2c bd 00 00 00 00
       0.0 -0.04565108 -0.042192783 0.0
0000d0 00 00 00 00 e1 9a 0d bd 00 00 00 00 94 a3 1c bd
       0.0 -0.034571532 0.0 -0.038241938
0000e0 e3 34 82 bc 72 60 fa bc 00 00 00 00 00 00 00 00
       -0.015894359 -0.030563567 0.0 0.0
0000f0 00 00 00 00 00 00 00 00 80 01 8b bd 3e 95 43 bd
       0.0 0.0 -0.067873955 -0.04774975
000100 00 00 00 00 00 00 00 00 2f 1e 89 bd 2d 10 21 bd
       0.0 0.0 -0.0669521 -0.039322067
000110 e7 2f 9d bd 00 00 00 00 55 6e 23 bd 00 00 00 00
       -0.07675152 0.0 -0.039900143 0.0
000120 55 c0 88 bd c1 ea 29 bd b4 cf 24 bd 00 00 00 00
       -0.066773094 -0.041483644 -0.040237144 0.0
000130 65 14 60 bd 73 b2 91 bd a6 fc 63 bd 13 b2 0c bd
       -0.05470695 -0.071141146 -0.055660866 -0.034349512
000140 00 00 00 00 00 00 00 00 00 00 00 00 00 00 00 00
       0.0 0.0 0.0 0.0
000150 51 91 26 bd 00 00 00 00 90 22 33 bd 00 00 00 00
       -0.04066593 0.0 -0.043734133 0.0
000160 00 00 00 00 00 00 00 00 61 7f 3a bd 0f 83 38 bd
       0.0 0.0 -0.045531634 -0.045046862
000170 3a 2a a8 bd 63 4c 9e bd 55 77 30 bd 5e 84 49 bd
       -0.08211179 -0.07729413 -0.043082554 -0.0491985
000180 00 00 00 00 15 85 20 bd 9c 45 75 bd 00 00 00 00
       0.0 -0.039189417 -0.059880838 0.0
000190 00 00 00 00 6a ce 1d bd 00 00 00 00 96 2f 1f bd
       0.0 -0.03852693 0.0 -0.03886374
0001a0 00 00 00 00 fa 38 2e bd cf 6d 8e bd 28 73 9f bd
       0.0 -0.042534806 -0.06954538 -0.07785636
0001b0 fe 61 6c bd 22 f8 16 bd 59 86 05 bd 00 00 00 00
       -0.05771064 -0.03685773 -0.032598827 0.0
0001c0 38 9e 95 bd 00 00 00 00 95 62 bb bc 00 00 00 00
       -0.073055685 0.0 -0.022874156 0.0
0001d0 00 00 00 00 00 00 00 00 01 ee 36 bd 45 23 11 bd
       0.0 0.0 -0.044660572 -0.035434026
0001e0 00 00 00 00 26 78 28 bd 00 00 00 00 00 00 00 00
       0.0 -0.041130207 0.0 0.0
0001f0 80 ad 83 bd 8a b0 2b bd 00 00 00 00 00 00 00 00
       -0.06429577 -0.041916408 0.0 0.0
000200 00 00 00 00 00 00 00 00 79 c6 3b bd 1f c2 c4 bb
       0.0 0.0 -0.045843575 -0.0060045864
000210 00 00 00 00 00 00 00 00 2f 1e 3d bd 60 00 0e bd
       0.0 0.0 -0.046171363 -0.034668326
000220 ad d7 38 bd dc 7c 4d bd bd 60 76 bd 00 00 00 00
       -0.04512756 -0.050167903 -0.06015085 0.0
000230 5b 64 1c bd 00 00 00 00 99 dd 23 bd 00 00 00 00
       -0.038181644 0.0 -0.040006254 0.0
000240 f0 84 45 bd 3c 20 16 bd 00 00 00 00 00 00 00 00
       -0.048222482 -0.036651835 0.0 0.0
000250 00 00 00 00 a9 24 06 bd 00 00 00 00 ff 14 4f bd
       0.0 -0.032749806 0.0 -0.050557133
000260 00 00 00 00 00 00 00 00 00 00 00 00 97 53 56 bd
       0.0 0.0 0.0 -0.05232581
000270 00 00 00 00 00 00 00 00 00 00 00 00 10 c9 1a bd
       0.0 0.0 0.0 -0.037789404
000280 00 00 00 00 00 00 00 00 00 00 00 00 93 4b f9 bc
       0.0 0.0 0.0 -0.030431544
000290 00 00 00 00 00 00 00 00 d0 13 a4 bd 65 87 2c bd
       0.0 0.0 -0.080115914 -0.04212131
0002a0 00 00 00 00 2a de 80 bd 00 00 00 00 1a 67 43 bc
       0.0 -0.062923744 0.0 -0.011926437
0002b0 c4 f8 0a bd 6b 44 fa bc 00 00 00 00 00 00 00 00
       -0.033928648 -0.030550202 0.0 0.0
0002c0 6d 76 09 bd 00 00 00 00 00 00 00 00 00 00 00 00
       -0.033560205 0.0 0.0 0.0
0002d0 40 87 10 bd 00 00 00 00 fe e7 1e bd 00 00 00 00
       -0.035285234 0.0 -0.038795464 0.0
0002e0 00 00 00 00 64 53 eb bc 00 00 00 00 be f2 1f bd
       0.0 -0.028726287 0.0 -0.039049856
0002f0 76 0e 23 bd 5d b6 3e bd 00 00 00 00 00 00 00 00
       -0.039808713 -0.046560634 0.0 0.0
000300 00 00 00 00 00 00 00 00 00 00 00 00 00 00 00 00
       0.0 0.0 0.0 0.0
000310 81 11 6b bd 00 00 00 00 38 35 08 bd 00 00 00 00
       -0.05738974 0.0 -0.03325388 0.0
000320 00 00 00 00 d0 25 0e bd 00 00 00 00 00 00 00 00
       0.0 -0.03470403 0.0 0.0
000330 60 9c 3a bd 37 1b 4c bd 00 00 00 00 00 00 00 00
       -0.045559287 -0.04983064 0.0 0.0
000340 00 00 00 00 8a c1 10 bd a4 d6 08 bc 00 00 00 00
       0.0 -0.035340823 -0.008351956 0.0
000350 00 00 00 00 00 00 00 00 8b 6d a1 bd 03 3c 73 bd
       0.0 0.0 -0.07882222 -0.059383404
000360 89 be 7d bd 00 00 00 00 cc c3 32 bd 92 36 0c bd
       -0.061949287 0.0 -0.043643758 -0.03423173
000370 7a 99 93 bd 00 00 00 00 00 00 00 00 00 00 00 00
       -0.07207008 0.0 0.0 0.0
000380 27 d3 10 bd 00 00 00 00 ce 2a 45 bd 00 00 00 00
       -0.03535762 0.0 -0.048136525 0.0
000390 cf 18 63 bd 00 00 00 00 a2 16 7e bd 52 d4 a3 bd
       -0.05544358 0.0 -0.062033303 -0.07999481
0003a0 00 00 00 00 bf 02 18 bd 3a 57 42 bd 00 00 00 00
       0.0 -0.037111994 -0.047446467 0.0
0003b0 eb 24 07 bd 00 00 00 00 c4 29 23 bd 00 00 00 00
       -0.032994192 0.0 -0.039834753 0.0
0003c0 53 0b 35 bd d7 dc 15 bd 00 00 00 00 00 00 00 00
       -0.044200253 -0.036587562 0.0 0.0
0003d0 b9 e2 1c bd 6d f7 a9 bc 00 00 00 00 66 2c 0d bd
       -0.038302157 -0.020747865 0.0 -0.03446617
0003e0 00 00 00 00 00 00 00 00 d8 ce 1b bd 00 00 00 00
       0.0 0.0 -0.03803906 0.0
0003f0 f8 3c 0d bd 00 00 00 00 53 2b 18 bd 00 00 00 00
       -0.034481972 0.0 -0.037150692 0.0

sequential_17/dense_60/BiasAdd/ReadVariableOp/resource f4 [2]
000000 93 50 63 bd 00 00 00 00
       -0.055496763 0.0

sequential_17/dense_60/MatMul f4 [2, 67]
000000 95 c0 f2 3e 6e c1 0b 3c 20 84 43 bf 74 4b 48 3f
       0.47412553 0.008530004 -0.7637348 0.7824013
000010 14 32 b6 be bc 66 e1 bf 6d 4d 06 3d 1b 90 d2 3e
       -0.35585082 -1.7609477 0.032788683 0.4112557
000020 6a d2 07 bf 77 5c bb be c5 f7 53 bf e2 89 2c bf
       -0.5305544 -0.36593983 -0.8279994 -0.6739789
000030 1f 75 e0 be ac 2c 32 3e 0f e4 34 bf 93 af 8a 3f
       -0.43839356 0.17399853 -0.7066049 1.0834831
000040 f2 7d b0 be b1 d1 e2 bf d5 52 91 be 84 2b 91 c0
       -0.3447109 -1.7720243 -0.28383508 -4.536562
000050 14 1b 3c bf 34 af 35 bf 18 29 b6 3d a5 00 46 40
       -0.7347882 -0.70970464 0.08894557 3.0937893
000060 d5 e8 83 be c5 07 df bf f8 89 b9 be 91 29 81 bf
       -0.25763574 -1.7424246 -0.36238074 -1.009081
000070 b7 04 d3 3e b0 37 8b 40 3c 96 36 bf 6d 3a b3 bf
       0.41214535 4.350548 -0.7132299 -1.4002205
000080 1a ac 59 3f 6b 99 e1 be c0 11 03 40 64 51 57 bf
       0.8502823 -0.4406236 2.0479584 -0.8410857
000090 93 9a 07 bf 99 59 63 bf 0b b7 44 3f b6 59 4d 3e
       -0.52970237 -0.8880859 0.768418 0.20053753
0000a0 21 34 20 bf 36 a7 ca be 5f 9b e0 bf 7f 47 aa be
       -0.6257954 -0.39580697 -1.7547415 -0.33257672
0000b0 36 0f 8d bf fe 00 f2 3f 72 de 67 c0 85 99 8e bf
       -1.1020267 1.8906553 -3.622952 -1.11406
0000c0 a5 e1 0a 3f 23 6c 53 40 bc a9 47 40 fa cb 3f bf
       0.54250556 3.3034751 3.1197348 -0.7492062
0000d0 08 89 06 bf 56 01 ee be 3b 02 80 bf 7b d6 a8 bf
       -0.52552843 -0.46485394 -1.0000681 -1.3190454
0000e0 69 ea 13 bf c5 c5 43 3e a8 05 92 be a0 f8 64 3d
       -0.57779557 0.19118412 -0.2851994 0.05590117
0000f0 4a 64 8a bf 88 18 2b bf 26 ad 4c 40 cd d2 26 c0
       -1.0811856 -0.66834307 3.1980681 -2.6066163
000100 30 36 1b be b2 99 92 3f 63 f7 aa be f9 3f 70 be
       -0.1515739 1.1453154 -0.33391866 -0.23461904
000110 e8 43 95 bd 5d 7c 8c be c8 d0 25 3e a2 87 d3 bd
       -0.07288343 -0.27438632 0.16192925 -0.10328604
000120 70 be dd 3d e4 17 6b bd 28 7e 1d bd 2e 48 49 be
       0.10827339 -0.05739583 -0.03845039 -0.1965644
000130 5a 78 03 3e 70 3c 47 3d 43 a5 26 be 00 25 c4 3c
       0.12838879 0.048641622 -0.1627398 0.023943424
000140 b8 49 db 3d 08 af 25 be 6c fb 7f 3e 80 e1 4d 3e
       0.1070742 -0.1618005 0.24998254 0.20105553
000150 20 e7 a1 bc e0 2a e8 bc 30 84 e9 3c fe 57 bc bd
       -0.01976353 -0.028340757 0.028505415 -0.09196471
000160 2a d5 e3 bd a0 ee 6e 3c cc 1f 1a 3e 30 77 88 3c
       -0.11124642 0.01458326 0.15051192 0.016658396
000170 dc 17 7f 3e d0 c8 e7 3c 20 87 6e 3c a8 34 4e 3d
       0.24911445 0.028293997 0.0145585835 0.050343186
000180 6e 5a 2c be 54 84 e2 3d c0 46 dd bc 7e 1a 40 be
       -0.16831371 0.11060396 -0.027011275 -0.18760106
000190 74 2e 2c 3e f2 a9 3d 3e ac cc a4 3d 36 98 ba bd
       0.16814595 0.1852186 0.080468506 -0.09111063
0001a0 80 3a e5 3c b6 a0 1c be 21 2d 06 be 10 c9 6d 3e
       0.027981997 -0.15295681 -0.13103153 0.2322123
0001b0 7a 4c 14 be 3c d5 70 3e 98 59 55 bd ac 55 60 3e
       -0.14482298 0.23518842 -0.052087396 0.21907681
0001c0 42 a4 8d 3e 66 46 86 3e 07 17 07 be 78 5b 29 3d
       0.2766438 0.26225585 -0.13192378 0.041346997
0001d0 78 6d 94 be f8 6c 14 bd 6a d9 0f 3e 52 75 1d be
       -0.28989768 -0.036236733 0.1404778 -0.15376785
0001e0 0e 39 22 3e d6 37 14 be 84 00 bc bd 2e cb 2d 3e
       0.15842077 -0.14474425 -0.09179786 0.16972038
0001f0 6c de 58 be e2 09 85 be fc 3b 39 be c8 51 a3 3d
       -0.21178597 -0.25984102 -0.18089288 0.07974583
000200 04 b6 59 be 8a eb c5 bd 4c 7e 92 3e fc 9c e2 3d
       -0.2126084 -0.09664066 0.28611982 0.11065099
000210 4c b5 76 be 14 6c 0d be
       -0.24092597 -0.1381076

sequential_17/dense_61/MatMul f4 [300, 2]
000000 11 7e c8 bd a0 3a be 3d d7 4c 46 3e 1e 39 d6 bd
       -0.0978967 0.092885256 0.1936525 -0.10460113
000010 67 71 4e 3e ea fd 06 3e 05 f9 f1 3d 78 fe c2 bc
       0.20160447 0.13182798 0.11815075 -0.02380298
000020 3c 13 58 3e 40 29 a3 bb 00 88 39 b9 43 c4 09 be
       0.21101087 -0.0049792826 -0.00017693639 -0.13453774
000030 c1 82 c8 bd ec 6e 2f bd 86 e8 0b be 50 8a e3 3d
       -0.09790564 -0.042830393 -0.1366292 0.111103654
000040 55 1a ba bd 5c 8f 85 bd d4 7d 18 bd bc 4b fc 3d
       -0.09087054 -0.06521484 -0.037229374 0.12319133
000050 60 74 56 bc a2 70 dd bd 13 f6 04 bc c8 48 08 3e
       -0.013089269 -0.10812499 -0.008115309 0.13309014
000060 70 c9 15 bd a3 86 ab bd c4 39 cd 3d 92 4f d8 3d
       -0.03656906 -0.08375289 0.100207835 0.10562052
000070 1d e4 17 3e 3c 1b d5 bc 40 1a bf bb 9c 9b de bd
       0.14833112 -0.026013963 -0.0058319867 -0.10869524
000080 ce 9b b6 3d fc c9 7d bd b0 f9 3d bd 90 72 09 3e
       0.08916436 -0.061960205 -0.0463807 0.13422608
000090 46 f1 cf bd 09 f5 c5 bd fa 16 5f bd 11 62 a1 bd
       -0.10153441 -0.09665877 -0.05446527 -0.07880033
0000a0 e9 4a 57 3e 11 0e aa bd 86 81 34 3e 60 d7 47 bd
       0.2102467 -0.08303464 0.17627534 -0.048789382
0000b0 86 dc ce 3d f8 46 93 3c d1 61 05 be 28 5f af 3d
       0.10100655 0.017978176 -0.13025595 0.085630715
0000c0 16 17 b0 3d 84 f9 d6 3d 60 bd 1e bc ea 51 d0 3d
       0.08598153 0.1049681 -0.009688705 0.10171874
0000d0 b8 3c 89 3d 5e ad 65 bd b6 ce 13 bd 20 1e 31 3c
       0.06701034 -0.05607354 -0.036085807 0.010810405
0000e0 f0 bf 0d be 88 c0 17 bd 2c 09 37 3e a0 40 ab bb
       -0.1384275 -0.037048846 0.17874593 -0.0052262098
0000f0 ce 97 1f 3e 1a ae d8 3d 48 7c ca bd e0 60 ae bd
       0.15585253 0.10580082 -0.09886986 -0.08514571
000100 60 85 8b bc e0 16 be 3b e9 49 f1 bd 46 08 01 bd
       -0.017031372 0.0058010668 -0.11781675 -0.03150203
000110 41 50 04 be 28 9f 34 3d 64 ee fa 3d 68 ec 3e 3d
       -0.1292124 0.044097096 0.12252501 0.046612173
000120 9f d2 6f 3e 28 f4 46 bd a3 88 08 3e 0c 25 5a 3d
       0.2342019 -0.04857269 0.13333373 0.053257987
000130 d0 63 49 3e a4 d1 79 3d 76 d5 57 3e 58 3a 64 3d
       0.19666982 0.060990945 0.21077523 0.055719703
000140 80 cc e0 bc c0 65 ad 3d a3 5a b2 3d 12 71 0f 3e
       -0.027441263 0.08466673 0.08708694 0.14007977
000150 77 44 60 3e 52 e7 3c bd 1f 43 54 3e a0 18 46 3d
       0.21901117 -0.04611904 0.2072873 0.048363328
000160 ce 08 4f 3e d0 37 25 3c 17 bc 4d 3e 50 6c 73 3d
       0.20218202 0.0100841075 0.20091282 0.059429467
000170 f1 a6 0a be ca 5c b5 3d b4 d6 28 bd 9e 95 38 bd
       -0.13540246 0.08855589 -0.04122038 -0.04506456
000180 e8 4b df bc 10 2b 43 3c f2 ec 50 3e ec cb 48 bd
       -0.027257875 0.011912122 0.20402887 -0.0490226
000190 38 50 53 3e fc f7 79 3d 9a 59 08 bd 4b c0 fd bd
       0.2063607 0.061027512 -0.033288576 -0.123901926
0001a0 fc c9 0a be 30 ad 90 3c a9 f7 1c 3e 70 df 98 3d
       -0.13553613 0.017660707 0.1532885 0.07464492
0001b0 64 1e e9 bd 80 b9 f8 bb df 5b bd 3d c0 f3 44 bb
       -0.1138275 -0.0075904727 0.09246039 -0.0030052513
0001c0 a2 2d 17 bc dc 71 2a bd ea b0 03 3e 80 34 e4 bb
       -0.009227188 -0.04161249 0.12860456 -0.0069642663
0001d0 c4 96 72 bd e0 f2 86 bb a0 08 37 bc 56 a9 91 3d
       -0.059225813 -0.0041183084 -0.01117149 0.071123764
0001e0 00 54 af bb 24 fe d6 bc 30 2b db bd 1d 5b 93 bd
       -0.0053505898 -0.02624423 -0.10701597 -0.07195113
0001f0 36 37 83 3d e8 87 cd 3d a6 e3 d5 3d 10 de 57 bc
       0.06407015 0.10035688 0.10443811 -0.013175502
000200 b5 15 d3 bd ec 3a 6e bd a6 89 c6 bd f0 c2 0a be
       -0.10306875 -0.05816166 -0.09694223 -0.13550925
000210 d8 2e 09 3e 40 d0 21 3d 7a d9 32 3e dc 37 aa bd
       0.13396776 0.039505243 0.17465773 -0.083114356
000220 7f fd a2 3d 10 f0 32 bc c9 ca 04 be de 1f ce bd
       0.07958507 -0.010921493 -0.12967981 -0.10064672
000230 0d 05 65 3e 1e 87 f5 bd ec 1e 6a bd 00 8e 09 3d
       0.22365208 -0.11988662 -0.057158396 0.033582687
000240 79 c4 da 3d 30 0d c9 3d 31 fe 03 3e ae 65 c0 3d
       0.106820054 0.098169684 0.12889935 0.09394394
000250 f7 dc fd 3d 1e 96 a1 3d be 6f e3 bd d6 22 d3 bd
       0.12395661 0.07889961 -0.111052975 -0.10309379
000260 ce d7 0b 3e a2 8c d3 3d 68 24 3a 3e 34 02 15 bd
       0.13656542 0.10329558 0.1817795 -0.036379054
000270 cc 6d ae 3d 70 76 5e 3d 9e 63 1f 3e d0 21 22 bc
       0.08517036 0.05431217 0.15565345 -0.009895757
000280 80 2d 82 bc 64 da 0a 3e 18 25 97 bc f2 d3 1e bd
       -0.015890837 0.13559872 -0.018450305 -0.038776346
000290 08 76 83 bd 70 db a0 3c 60 f5 61 bd 5c d9 9c 3d
       -0.06418997 0.019635886 -0.05516565 0.076586455
0002a0 aa 7b b0 3d ad fc f2 bd 28 bb 2b bd a1 ad af bd
       0.08617337 -0.118646 -0.041926533 -0.08578039
0002b0 fc 03 bb 3d a0 0f bc bb 7e c2 59 bd 70 a9 c1 3c
       0.09131619 -0.0057391673 -0.053163998 0.023640364
0002c0 54 78 80 bd 1c 3f 7e 3d f3 99 09 be 80 bf bf ba
       -0.06272951 0.062071905 -0.13437633 -0.0014629215
0002d0 2f 5f c5 3d 9a 4a 21 bd 5e a5 ed 3d c0 e3 7a bc
       0.096372955 -0.039377786 0.11603807 -0.015313089
0002e0 07 9b 07 3e 90 bc 7a bc d1 9f f8 3d 60 50 d4 3b
       0.13242732 -0.015303746 0.121398576 0.006479308
0002f0 a9 aa 26 3e 92 c9 dc bd 3e ae c1 3d 90 c3 45 bd
       0.16276039 -0.10780634 0.09457062 -0.048282206
000300 6a 6d d3 bd b8 af 0b 3e d0 40 07 3e 12 2c 0b be
       -0.103236035 0.1364125 0.13208318 -0.1359103
000310 d9 80 31 3e 10 e2 9f 3d 73 cb ee bd d6 20 36 bd
       0.17334308 0.0780679 -0.116598986 -0.04446491
000320 d3 73 95 bd de b2 d6 bd 6c 3f 3e 3e 5b d3 da bd
       -0.07297482 -0.10483335 0.18578881 -0.10684844
000330 90 01 09 be a4 42 b6 bd 51 0a 3c 3e 12 1c 97 3d
       -0.13379502 -0.088994294 0.1836331 0.07378401
000340 c0 de f7 bc 6c b2 fe bc 60 23 10 3e 0e a6 03 be
       -0.030257583 -0.031090938 0.14075994 -0.12856314
000350 96 24 0c 3e 7a f7 8a 3d 98 47 c3 3d 1b 0e 94 bd
       0.13685831 0.06785484 0.0953514 -0.07229253
000360 8c e3 c6 3d 60 7c ef 3d 60 af 33 3e 00 e5 8e 3a
       0.0971137 0.116936445 0.17547369 0.0010901988
000370 b1 17 23 3e b0 ad de bd bc b4 7d bd 24 99 b8 3d
       0.15927006 -0.10872972 -0.06193994 0.09013584
000380 7c f7 9b 3d 80 56 93 3b e6 86 c9 bd d0 58 a4 bd
       0.07615563 0.0044963956 -0.09840183 -0.08024752
000390 cf 5e 2d bc 72 77 3d bd 04 ca a7 bc ce 49 da 3d
       -0.010581686 -0.04625649 -0.02048207 0.106586084
0003a0 17 38 e4 bd 78 d4 06 bd cc 33 99 bd b3 62 0d be
       -0.11143511 -0.03291747 -0.074805826 -0.13807182
0003b0 2a 32 aa 3d 80 db 6a 3c 46 54 57 3e a3 e0 f8 bd
       0.08310349 0.014334559 0.21028242 -0.12152221
0003c0 5c da f3 bc 08 4d 76 bd 9c 75 36 3e f4 ac dc bd
       -0.029767208 -0.060132056 0.17818302 -0.10775176
0003d0 6a c6 3d bd de cb 86 3d 99 4f a0 bd c0 f0 28 3b
       -0.0463318 0.06581853 -0.07827682 0.0025778264
0003e0 1d bd 26 3e 00 47 e9 3d a6 52 0d 3e 04 68 b3 bd
       0.16283078 0.11390495 0.13801059 -0.08760074
0003f0 48 07 0b be f0 e7 28 3c 6e e1 3a bd d8 f4 80 3d
       -0.13576996 0.010309204 -0.045625143 0.062967

sequential_17/dense_62/MatMul f4 [200, 300]
000000 30 13 9b bd 59 e8 1e 3e 22 66 13 3e 23 de 89 3d
       -0.07572019 0.15518321 0.1439443 0.06731822
000010 6b fe 02 3c e8 f8 87 bd 6f a6 97 3d ce dc 5f 3d
       0.007995228 -0.06639272 0.074047916 0.054653935
000020 1c 9c e7 3c 14 d2 f3 3c e8 58 02 bc 2a 14 b0 bd
       0.028272681 0.029763259 -0.007955767 -0.08597596
000030 a0 fd 90 bb c9 c8 f6 3d 01 10 83 3d 00 64 39 ba
       -0.0044247657 0.120500155 0.06399537 -0.0007072091
000040 50 a1 45 3d 94 70 fa 3c 80 0a 6c bb 70 73 b9 bc
       0.048249543 0.03057126 -0.0036017 -0.022638053
000050 05 fe c2 3c 59 8a 43 3e ae 2e 3b 3d 65 1e 8d 3d
       0.023802767 0.19095744 0.045698814 0.06890563
000060 1a 93 b8 bc 13 0d 81 3d 4c e1 d4 3d d8 d4 6c 3c
       -0.022531081 0.06301322 0.103945345 0.014455043
000070 d7 76 da 3d 48 51 34 3e ca 14 9e 3c 7e a1 a1 bd
       0.10667198 0.17609131 0.019297022 -0.0789213
000080 f0 ae 6c 3c be 1a 20 3d 3c 60 bf 3c b2 cd 3c 3e
       0.014446005 0.039088003 0.023361318 0.18437842
000090 19 a2 d7 3d ea 35 d8 3c 97 a4 bc 3d 9c f5 cc 3d
       0.105289645 0.026392896 0.092110805 0.10007784
0000a0 40 3d ef 3b 47 ed 33 3b 54 93 6a 3d d2 8a 4f 3e
       0.0073010027 0.002745466 0.05726941 0.202678
0000b0 4e 30 19 3e 95 bb 0b 3e b0 2d a5 3b fe 7b 0e 3d
       0.14959833 0.13645776 0.0050408468 0.034786217
0000c0 57 7d cb 3d 57 b9 a5 3d bb 0b af 3d 80 20 73 3a
       0.09936016 0.080919914 0.08547159 0.0009274557
0000d0 14 5b f7 bc e8 f1 a4 3b 15 04 c7 bd 18 79 23 3e
       -0.030194797 0.0050337203 -0.097175755 0.15964162
0000e0 9f 03 b8 3d 71 1e 38 3d bd e5 cb 3d 7f f9 94 3d
       0.08985066 0.044950906 0.099559285 0.0727415
0000f0 99 1b 59 bd 19 16 a6 bd d9 cf 2a 3d 0d 42 ec 3d
       -0.053004835 -0.081096835 0.041702125 0.11536036
000100 8a f6 03 3d 90 69 81 3b 75 f7 68 3d c7 bf 20 3e
       0.03221754 0.0039493516 0.05687662 0.15698157
000110 39 d6 5d bc 35 18 ba bd 02 6a 61 3c d0 10 d0 bd
       -0.013539844 -0.090866484 0.013758184 -0.10159457
000120 b4 e2 11 3d 76 5a 91 3d d4 d6 0d bc b2 cf 51 3d
       0.03561659 0.07097332 -0.008657176 0.051223464
000130 5f ce 27 3d 98 e7 06 3e 7e c2 3d 3e f3 11 b6 3c
       0.040968295 0.13174284 0.18531224 0.022225356
000140 95 63 de 3d 53 98 65 bd 64 a2 f8 3c 60 e3 d8 bd
       0.108588375 -0.05605347 0.030350871 -0.10590243
000150 0d d0 65 3d e0 bc 2c bd 89 74 ca 3d 00 a4 a0 bc
       0.056106616 -0.042172313 0.098855086 -0.019609451
000160 9c 2d d9 3c cd 73 a4 3d a8 5d c5 3d 6c c5 87 3d
       0.026511006 0.080299 0.09637004 0.06629452
000170 d2 05 bb 3d 12 bf 14 3d 46 bd 20 3e 21 61 2b 3e
       0.091319695 0.03631503 0.15697202 0.1673627
000180 41 30 73 bd d3 80 21 3e 1f 53 51 3e a7 c6 7c bd
       -0.05937219 0.15771799 0.20441864 -0.061712887
000190 9c 59 b2 bc b5 2e d1 3d 22 e8 7a bd a0 e9 36 3e
       -0.021771245 0.10213987 -0.061256535 0.17862558
0001a0 58 52 b2 bd 07 aa 0d 3e 59 0c 29 bc 75 9c a1 3d
       -0.08707112 0.13834392 -0.010317885 0.0789117
0001b0 1a da ec 3d 62 46 30 3e 81 2f 9b 3d 05 15 bd 3d
       0.11565037 0.17214349 0.0757742 0.09232525
0001c0 c5 a7 1c 3d 62 69 90 bd 4d 7a ca bb 00 73 26 bb
       0.038245935 -0.0705135 -0.00617913 -0.0025398135
0001d0 00 34 51 39 c4 88 6e bd 51 bb 9b 3b d9 f0 23 3e
       0.00019951165 -0.0582359 0.0047525545 0.16009845
0001e0 1d cc c5 bd b7 19 d9 3c 85 02 8e 3d 8f c2 b2 3d
       -0.09658072 0.02650152 0.06934074 0.08728515
0001f0 aa 8f 1a 3e 3e ab b9 3d b8 a8 6d bd c0 c4 f4 3b
       0.15093866 0.09065865 -0.05802223 0.0074697435
000200 41 db 8e 3d 05 be a9 3d 67 e6 19 3e 7e 34 5c bd
       0.06975413 0.082881965 0.15029298 -0.053760998
000210 9d dd b1 bd ba 02 0d 3d 91 d0 1a 3e 4c 44 ce 3d
       -0.086848475 0.03442643 0.15118624 0.1007162
000220 67 b3 91 3d 67 cd 42 3e 4b d4 3e 3e 40 6a 8d bb
       0.071142964 0.19023667 0.18635671 -0.0043156445
000230 1a 39 2c 3e 54 83 e0 3c 48 d1 2e 3e f9 43 92 3d
       0.16818658 0.027406372 0.17072022 0.07141871
000240 26 1e b7 3d 0d 4e 8a 3c 15 fb b6 3d 0b ce 9a 3d
       0.08941297 0.01688292 0.08934609 0.07558831
000250 30 8c 88 bd 75 90 25 3e 40 3d 6d bb f1 47 12 3e
       -0.06667364 0.16168387 -0.0036199838 0.14285256
000260 36 b0 67 3d 06 51 40 bd ce 38 ca bd b1 4c aa 3a
       0.056564532 -0.04695227 -0.09874116 0.0012992827
000270 8f 38 af bd d0 43 fa bc f4 3b 79 bd 9b 33 45 3e
       -0.085557096 -0.030549914 -0.06084819 0.19257967
000280 1a 62 5c 3d 98 c5 fd bc 3a a1 25 3d 11 1e ae 3d
       0.053804494 -0.03097801 0.04043696 0.085018285
000290 c1 cc b5 3d 6c d7 b5 3c f6 ce d8 3d 00 1e 2b 3d
       0.08876944 0.022197448 0.1058635 0.041776657
0002a0 14 96 bd bc 0e d8 ee 3c 15 b0 db 3d 5b 6d 8d 3d
       -0.023142852 0.029155757 0.10726944 0.069056235
0002b0 61 5a ce 3d ba 56 03 3e fd 96 a0 3d 36 a5 cf bd
       0.10075832 0.12826052 0.07841299 -0.10138933
0002c0 0d 11 3b 3e aa ad 03 bd d8 83 d2 bd 38 d6 66 3c
       0.18268223 -0.03214804 -0.102790534 0.01408916
0002d0 4b f8 87 3d c1 b0 b1 3d 04 7d 14 ba fd 0d 99 bd
       0.06639155 0.08676291 -0.0005664381 -0.07473371
0002e0 04 ad 45 bd 3c d2 44 3d ad 18 88 3d 01 9b 2b 3e
       -0.048260704 0.048052058 0.066453315 0.16758348
0002f0 42 75 df 3c 8e 7e 98 3c 90 cf 18 3c d7 d3 da 3d
       0.027277593 0.018615033 0.0093268305 0.106849365
000300 d0 6d 64 bc 9e 71 b4 bd a3 52 9a 3d 24 55 b2 bd
       -0.013942197 -0.08810733 0.07535293 -0.087076455
000310 ae f9 ea 3d 3e ff ac bd 87 4a 8e 3d 0a 4c 3a bd
       0.11473404 -0.08447121 0.06947809 -0.045482673
000320 a2 e5 2e 3d 54 de fd 3c 0c 2a b2 bd 96 47 60 3d
       0.042699464 0.030989803 -0.08699426 0.05475577
000330 39 52 8d 3d 8c 5e 4d 3e 32 6c c0 bd 8b 79 d4 3d
       0.06900448 0.20055598 -0.093956366 0.10374745
000340 f9 80 c1 bd ba 35 28 3c 42 c6 fc bc 53 fb 86 3d
       -0.09448428 0.010266716 -0.030856255 0.06590905
000350 5c be 86 bc c3 db bd bd 2e fa 8a bb 91 6e af 3d
       -0.016448192 -0.09270432 -0.0042412495 0.08566011
000360 21 be 1d 3e 8e 42 43 3d c9 2e 97 3d ec 9a bc 3d
       0.1540456 0.047670893 0.073819704 0.092092365
000370 c5 bf 31 3e 70 c5 95 bb 0d 0b c9 3d 4a 05 b6 bd
       0.1735831 -0.0045706555 0.09816561 -0.088877276
000380 25 3a b8 3d 80 82 23 bc 86 6b 19 bc 58 92 37 bd
       0.08995465 -0.009979844 -0.0093640145 -0.0448173
000390 a9 ba e3 3d d5 08 a4 bd b3 71 34 3e f0 06 90 3d
       0.11119587 -0.08009497 0.17621498 0.07032573
0003a0 68 43 88 bc be bb e7 3d e0 01 e3 3d 77 93 84 3d
       -0.016633704 0.11315106 0.11084342 0.06473439
0003b0 b0 72 a3 3d c4 5e 8a 3c ef a5 02 3e c6 db 8b bd
       0.07980859 0.01689089 0.12758611 -0.06829028
0003c0 b5 2b db 3d 64 7a 31 bb f7 93 b7 3d e3 08 9d 3d
       0.10701696 -0.0027081007 0.08963769 0.07667711
0003d0 51 da 4e bc 7e 6e ae 3d 4f dc 86 3d 7f d6 ed 3c
       -0.012625293 0.085171685 0.06584989 0.029032944
0003e0 e0 cb 0d bd a2 8f 10 3d f7 ea bc 3d 90 ca ae bd
       -0.03461826 0.03529323 0.092245035 -0.085347295
0003f0 ec 98 fa 3d 16 df 29 bd e3 44 31 3e 9b 04 dc 3d
       0.12236199 -0.041472517 0.17311434 0.10743066

sequential_17/dense_63/MatMul f4 [100, 200]
000000 94 da 9e 3d 4a 9c b5 bd 5f 07 0c 3e dc ee dc bd
       0.07756534 -0.088677004 0.13674687 -0.10787746
000010 62 44 63 3e 44 cf 3c 3e 5a 97 cc 3d f8 e6 2d 3d
       0.22194055 0.1843844 0.099898055 0.042456597
000020 a7 b9 20 bd 77 e0 ca bd fc 22 24 3e ff 88 27 bd
       -0.039239552 -0.099060945 0.1602897 -0.040902134
000030 b5 da d1 3d d8 f2 fb 3d 18 6f 0a 3d 24 c1 e1 3d
       0.10246793 0.12302178 0.033797354 0.11023167
000040 c0 e2 12 bb b9 c5 fc 3d 5c 14 1c 3d 02 18 0b 3e
       -0.0022412986 0.123424 0.038105354 0.13583377
000050 b2 4b 7e 3d 60 2e ef bd 67 4d 08 3e 2e f8 df 3d
       0.062083907 -0.11678767 0.13310777 0.109360084
000060 4f 76 db 3d 1f de 4e 3e 4b 57 60 3e f9 df 26 3d
       0.10715925 0.2020192 0.219083 0.04074094
000070 a3 e9 35 3e 28 d2 a1 3d 02 4e bd bd 57 d4 75 3d
       0.17764907 0.07901412 -0.092433944 0.060016956
000080 c0 df 29 bb c3 ec 08 3e 48 58 04 bd b5 28 09 be
       -0.002592072 0.13371567 -0.032310754 -0.13394435
000090 b4 4b 02 be 7c f7 fb bd 4b 49 32 bd 79 24 07 3e
       -0.12724191 -0.12303063 -0.04352693 0.13197507
0000a0 cd 17 11 3e 7c 5f 15 bd 3a 36 34 3d 0b 6d e6 bd
       0.14169236 -0.036468014 0.043997027 -0.11251267
0000b0 ff 68 fc bd 4a 79 b7 3d b1 44 d8 bc 8d ca f5 bd
       -0.12324714 0.08958681 -0.026399942 -0.12001524
0000c0 90 ec fd bd 48 34 c4 3c 78 26 8d 3b fc 28 cb bc
       -0.12398636 0.02395071 0.0043075643 -0.024799816
0000d0 90 48 2c 3d 79 b3 04 bb 7b 55 12 3e 33 04 0a be
       0.04206139 -0.0020248576 0.1429042 -0.13478164
0000e0 62 fb bc 3d f0 4a dc 3c 5b 79 44 3c ff e6 b7 3d
       0.09227635 0.026891202 0.011991824 0.08979606
0000f0 f7 f0 45 bd b0 d2 94 3d f0 08 41 bd 83 3c bf bc
       -0.048325505 0.07266748 -0.047127664 -0.023344284
000100 62 d1 c1 bd 50 85 eb bd 2c 63 23 bd 14 f1 57 bd
       -0.09463765 -0.11500037 -0.0398895 -0.052720144
000110 21 a5 64 3e 50 3f bc 3c a2 8c f7 bc 49 1f b8 bc
       0.22328617 0.022979409 -0.030218426 -0.022475855
000120 a9 c4 db 3d 0a d0 65 3d 00 b2 d9 3c eb 49 30 3e
       0.10730869 0.056106605 0.026574135 0.17215697
000130 9b 1c 36 3e 64 e1 95 bb 82 fd 0d 3e 94 a4 7b 3d
       0.1778435 -0.004573988 0.13866237 0.06143625
000140 40 79 dc bd 5c d5 bc bd 55 56 1c 3e 0b 19 81 bd
       -0.10765314 -0.092203826 0.15267308 -0.06303605
000150 5a 04 05 3e 43 89 9d bd a6 95 a2 3d 68 75 85 3d
       0.12989941 -0.07692196 0.079386994 0.06516534
000160 61 c6 d9 3d ec 24 24 bd 40 d8 6b bb 7a fa a1 3d
       0.10633541 -0.040074274 -0.003598705 0.07909103
000170 7f 91 2d bd b4 77 01 be 29 2e 08 3e 7f e5 dc 3d
       -0.042375084 -0.1264332 0.13298859 0.107859604
000180 c7 88 ba 3d e0 76 d4 3c 1e 7b ba bc 3f 73 b2 bc
       0.091081195 0.02593559 -0.022763785 -0.02178347
000190 18 dc bb bd 02 ea 08 3e a4 bd 3d 3d cf ef 51 3e
       -0.09172839 0.13370517 0.046323434 0.20501636
0001a0 2b 5d bb 3d e1 09 22 3e 0e f9 70 3c 99 af ad 3d
       0.0914863 0.15824081 0.014707817 0.08480758
0001b0 ac 39 64 3d 94 89 ba 3d 7b 4a d2 3d c8 e5 52 bd
       0.055719063 0.09108272 0.10268112 -0.051488668
0001c0 fb 58 8c bd 70 23 1a 3e d4 f2 c3 bd ea fa 06 be
       -0.06852909 0.15052581 -0.095678 -0.13181654
0001d0 7f 18 d2 bd 40 a8 9e 3b a6 9a ba 3d eb df a5 bc
       -0.102585785 0.0048418343 0.09111528 -0.020248374
0001e0 68 c7 98 3d 1b 74 4d 3e 65 bf 3c 3e 54 35 02 3d
       0.07459909 0.20063822 0.18432386 0.03178914
0001f0 19 0b b0 3c 65 2a 2c b9 96 c9 02 3e a1 20 0e 3d
       0.021489667 -0.00016418991 0.12772211 0.034699086
000200 34 76 36 3d f5 b5 32 3d 88 7f 06 be 50 e8 88 3d
       0.04454632 0.04363056 -0.13134587 0.06684935
000210 1e 27 ca bd 04 9b 3c 3d c2 3b 66 bd b8 10 cf 3d
       -0.09870742 0.046046272 -0.056209333 0.10110611
000220 30 ef 05 bc 02 dd 71 bd 01 0a 32 3e 14 47 02 bd
       -0.0081747025 -0.05904866 0.17386629 -0.031806067
000230 1e a5 2a 3e de 0a bd bd 79 78 d9 3c 7e 40 92 bd
       0.1666455 -0.092305884 0.026546704 -0.07141207
000240 20 f5 a0 bb fa 78 20 3e 91 52 8a 3d 80 dc e6 3b
       -0.0049120337 0.15671149 0.067540295 0.0070453286
000250 fd b9 5f bd 9c 48 5c 3d 00 63 20 3c 2a c6 13 3e
       -0.05462073 0.053780183 0.009789228 0.14431062
000260 c5 aa 09 be f8 48 cd bc ae 9c e5 3d 12 33 20 3e
       -0.1344405 -0.025059208 0.11211525 0.15644482
000270 90 d5 c8 bd ee d5 0c 3d 5f 36 82 3d bb ba 01 3e
       -0.09806359 0.034383707 0.06358027 0.12668888
000280 60 ab 08 bc 86 bd b7 bd 00 f7 71 bc e5 0c 85 bd
       -0.00834164 -0.089716956 -0.014768362 -0.064966
000290 cc 53 be 3d fb 39 56 3e 2c 08 d4 bd 8a 4c 32 bd
       0.09293327 0.20920555 -0.10353121 -0.043530025
0002a0 60 66 73 3c 57 38 01 3e 8a 16 b2 bd 6c db 70 3c
       0.014855951 0.12619148 -0.08695705 0.014700752
0002b0 ea 5d 08 bb f3 a9 dc bd c5 f8 ed bd e0 0e 6d bd
       -0.002080793 -0.10774603 -0.11619715 -0.057875514
0002c0 34 69 c8 bb 7f 26 d6 bd c2 c7 d1 3d 5f 47 87 3d
       -0.006116057 -0.10456561 0.10243179 0.0660541
0002d0 80 f2 1a bb e6 8b b9 3d fb 73 0e 3e fe 21 a9 3d
       -0.0023643076 0.09059887 0.1391143 0.082584366
0002e0 02 d3 a6 3d 94 34 f4 3b 96 f0 e5 3c 86 95 11 3e
       0.08145715 0.007452557 0.028068822 0.14217195
0002f0 f0 2b 85 bc 4a 11 0b 3e 0d 49 eb 3d 6d ab 92 bd
       -0.016256303 0.13580814 0.11488543 -0.07161603
000300 92 ae 06 be 1e 98 95 bd 98 47 46 bd 94 a6 c0 bc
       -0.13152531 -0.07304405 -0.04840812 -0.02351693
000310 d2 fe 22 3e 4f 61 d0 bc 38 fd 80 3d 56 90 bf 3d
       0.15917519 -0.025437025 0.06298298 0.09353702
000320 3d cf 34 3c f2 88 55 bd b2 8f f4 bd 40 ff 5f bd
       0.011035738 -0.052132554 -0.1194147 -0.054686785
000330 0e 9a f3 bd 49 a0 4e 3c 1f 9c ce 3d 75 b8 02 be
       -0.11894618 0.012611457 0.100883715 -0.12765677
000340 ea 6a c2 bd 06 c6 8d bd d0 3f 6d 3d 23 0d 03 3e
       -0.094930485 -0.069225356 0.057922184 0.1279798
000350 5c 0d d5 bd 90 d8 5d 3c 12 58 c6 3d 94 27 a0 bd
       -0.10402939 0.013540402 0.09684767 -0.07820049
000360 20 15 d2 3b f5 ba 34 bb cd 14 8f 3d 21 16 07 be
       0.0064112097 -0.0027577255 0.06986389 -0.13192035
000370 6e 57 9c 3d 0a 83 fb 3d a0 f4 6f bc a8 c6 c1 bc
       0.076338634 0.12280853 -0.0146457255 -0.023654297
000380 27 2a e7 3d b1 9d 93 bc 38 ac bd 3d c5 de 76 bd
       0.11287337 -0.018019529 0.09261364 -0.060271043
000390 cd 25 7b bd 42 36 f4 3d 60 0d c4 bc 7b 3b e1 3d
       -0.061315347 0.11924411 -0.023932159 0.10997673
0003a0 98 fd 99 bd 76 dc a8 bd 70 7c 12 bc f0 1e 1f bd
       -0.07519072 -0.082451746 -0.008940801 -0.038847864
0003b0 04 f9 ad 3d 40 07 f4 bd 20 d6 06 bc 07 b2 9c bd
       0.084947616 -0.11915445 -0.008229762 -0.076511435
0003c0 25 da d6 3d ca d8 f1 bd df db bb 3d 1f 8c 8e bd
       0.104908265 -0.11808927 0.091727965 -0.0696032
0003d0 7c 3e e0 3d 78 21 81 bd df 5b ee 3d 13 9b f5 3d
       0.10949418 -0.06305212 0.11638617 0.11992469
0003e0 b8 af a8 3d 96 93 25 bd 17 23 f9 bd 84 7f c9 bc
       0.08236641 -0.040423952 -0.12164896 -0.024596937
0003f0 52 03 80 3d c7 93 ea bc 15 77 49 bb 18 dd cf bd
       0.06250633 -0.028634919 -0.0030741144 -0.10149592

sequential_17/dense_64/MatMul f4 [50, 100]
000000 3c 4b dc 3d e7 53 bc bd 96 09 ec 3d 30 24 6c bc
       0.10756537 -0.091956906 0.11525266 -0.014412925
000010 99 10 0f 3e 69 ca 31 3e 4d e0 02 3e 4e e6 af 3d
       0.13971175 0.1736237 0.12780876 0.08588849
000020 20 dc e6 3d 9f e5 99 3c 1f 02 d6 bb 4d 04 e5 3d
       0.11272454 0.01878625 -0.0065310146 0.11182461
000030 f3 50 be bd 1d fb 00 3e 10 e8 51 3e e0 22 4a 3e
       -0.092927836 0.12595792 0.20498681 0.19739866
000040 23 13 20 be 5d 53 31 3e 5b 8b 9a 3b 8f f0 dc bc
       -0.156323 0.17316957 0.0047163195 -0.026970176
000050 8c 72 3a bd d4 71 88 bd a9 a3 91 3d c6 83 2b be
       -0.045519397 -0.06662336 0.07111294 -0.16749486
000060 d0 2e 93 bc 27 d5 cd bd f8 1c bb bd 43 94 23 be
       -0.017966658 -0.10050421 -0.09136385 -0.15974526
000070 c4 21 82 3e f3 99 ac bd 7c 41 79 3d 28 17 40 3d
       0.25416386 -0.08427801 0.060853466 0.046897084
000080 06 b8 6f 3e bd 67 45 3e 5a cf 8d 3e c0 c1 31 bd
       0.23410043 0.19277854 0.2769726 -0.043397665
000090 d0 d4 49 3e 91 32 31 be b9 eb 2b 3e 18 6a bb 3c
       0.19710088 -0.17304446 0.1678914 0.022877738
0000a0 27 35 36 3e 90 8a a0 bd 67 39 48 be 40 73 e0 3c
       0.17793714 -0.07838929 -0.19553147 0.027398705
0000b0 ce 79 dd bc 00 8b 04 3e 13 f5 d4 bd d3 41 3e be
       -0.02703562 0.1294365 -0.10398307 -0.18579797
0000c0 c3 c8 96 3d c0 37 4f bd 50 f5 93 3e 0e 7d e9 3d
       0.07362511 -0.050590277 0.28898096 0.114008054
0000d0 c7 e9 c9 bd 30 fc 1b be 73 75 8d 3e 41 48 03 3e
       -0.098590426 -0.1523292 0.2762867 0.12820531
0000e0 36 96 36 3d fd f1 96 3d 60 eb 82 3e e5 20 36 bd
       0.044576846 0.07370374 0.25570202 -0.044464964
0000f0 b2 a9 9a 3d 62 91 04 bc 39 54 33 3e 87 fe 13 3d
       0.07551898 -0.008091303 0.17512597 0.036131408
000100 43 6c 1c 3e ee a1 87 3d 67 97 df bd 0e 52 2c be
       0.15275674 0.066226825 -0.109175496 -0.16828176
000110 31 3e 68 bd a0 4f ab bb 95 e3 87 3e 57 44 b3 bd
       -0.056699935 -0.005227998 0.2654082 -0.08753269
000120 a6 cc 3e bd 38 25 14 3e 7c 20 15 3e 5a d5 93 3d
       -0.046581887 0.14467323 0.14563173 0.07218428
000130 00 f1 33 3c f0 33 30 be f2 46 85 bd de 31 0a 3e
       0.010982752 -0.17207313 -0.06507672 0.13495585
000140 40 c4 06 be 4a a6 8f bd 46 e4 58 3e 20 63 a1 bd
       -0.13160801 -0.07014139 0.2118083 -0.07880235
000150 f1 c1 75 3e 68 79 3a 3e d0 0f 69 3c df 89 11 3e
       0.23999764 0.18210375 0.014224961 0.1421275
000160 56 14 18 3e 3e c0 5f 3b 57 35 64 3c 86 c4 0e be
       0.14851508 0.0034141685 0.013928733 -0.13942155
000170 0c 62 75 3d e7 8c 33 be 00 43 f6 3a 31 ca 0b 3e
       0.059907958 -0.17534219 0.0018788278 0.13651349
000180 4e de 1b 3e 4c 7d 45 bd 3a 29 27 3e b9 c1 8f 3e
       0.15221521 -0.048215196 0.1632432 0.28077486
000190 09 61 69 bd 02 8a f2 3d 9d c9 1c be 98 c1 ed 3c
       -0.056977306 0.11842729 -0.15311284 0.029022977
0001a0 9d 35 57 3d 80 09 ec ba af 7c 01 be 4d bd d3 bd
       0.052541364 -0.0018008202 -0.1264522 -0.10338841
0001b0 8c f3 34 3e 39 00 35 3d 60 75 4c 3c d7 f3 eb bd
       0.17671031 0.044189665 0.012479156 -0.11521118
0001c0 42 7f f0 3d 0c e4 0f 3d 47 ef f2 3b ab 9f c0 3d
       0.117430225 0.03512959 0.007413778 0.09405454
0001d0 59 bb 17 be 8d 68 ec bd 09 6a a6 bd e7 0a a4 bd
       -0.14817561 -0.11543379 -0.08125693 -0.08009892
0001e0 30 62 8b bc c4 46 50 3d 28 ab 33 be 0a 09 a7 3c
       -0.017014593 0.050848737 -0.1754576 0.020390052
0001f0 d0 c2 ae 3c a6 82 13 be a5 b4 a9 bd 9c 37 ec 3d
       0.021333128 -0.14405307 -0.08286408 0.11534044
000200 d7 db 15 be 2d dd e6 bd a7 d6 38 be 69 d5 18 3e
       -0.14634643 -0.11272655 -0.18050633 0.1492516
000210 84 c5 d2 3d d8 69 2c 3d 96 7a 37 3e 6a f4 73 bc
       0.10291579 0.042093128 0.17917857 -0.014889816
000220 2b 7f fc bd 8c 69 1e bd 68 bb 73 bd 18 84 b4 3c
       -0.12328943 -0.038674876 -0.059504896 0.022035643
000230 50 dd c4 3c 0c 84 99 bd 18 00 5b bd 3f f5 37 3e
       0.024031311 -0.07495889 -0.053466886 0.17964648
000240 06 e1 01 3e ac 3c 06 3e 30 b7 66 bc 60 02 d9 bb
       0.12683496 0.13109082 -0.014081761 -0.0066225976
000250 7a ca f2 3d 42 a5 c9 3c 20 16 28 3e c1 99 25 3e
       0.118550256 0.024614934 0.1641469 0.16171934
000260 59 4a 24 3e 19 a3 22 3e 30 d9 f7 3d d7 91 8b 3d
       0.16043986 0.1588253 0.12101972 0.06814926
000270 1c a8 86 bd d1 5a 37 bd 84 69 42 be 4d 3e 2e 3e
       -0.06575033 -0.044764344 -0.18985564 0.17015953
000280 2d 21 24 3e a7 ad 76 bd 0c cb 40 3d 43 d8 da bd
       0.1602828 -0.0602242 0.04706864 -0.1068578
000290 7d 57 03 be 69 a9 13 3e a0 fa 16 be 5e a7 b3 3d
       -0.12826343 0.14420094 -0.14744043 0.08772157
0002a0 d2 ae 4c be f0 e7 40 be d9 6a d1 bd 25 ba 0d be
       -0.19988564 -0.18838477 -0.10225458 -0.1384054
0002b0 49 5b a3 bc 44 97 3e be 13 69 43 3d 90 6e 13 be
       -0.01994099 -0.18612391 0.04770763 -0.14397645
0002c0 5d fb 8c bd 7a 55 de bd c3 ca 27 3e 08 08 45 be
       -0.06883881 -0.10856147 0.16385941 -0.19241345
0002d0 48 33 0d be 2e d6 d9 3d 2c ee 4e be c1 1b 0b 3d
       -0.13789093 0.10636555 -0.20208043 0.033962015
0002e0 dd d4 9a bd 2d e1 35 bd fa c6 df 3d 5b 22 04 be
       -0.07560132 -0.044404197 0.10926624 -0.1290373
0002f0 6a 54 c1 3d 46 df 4f be 62 e8 27 3e ed 10 2c 3e
       0.09439929 -0.20300016 0.16397241 0.16803332
000300 98 e9 f4 bc a0 b8 13 bc 0d 84 3c be 4a 76 c8 3c
       -0.029896542 -0.009016186 -0.18409748 0.024470467
000310 be 1a 89 bd 3f db 82 3d 6a 02 2c 3e c8 98 28 3e
       -0.06694554 0.06389474 0.16797796 0.16464531
000320 82 e6 ea 3d 39 1d e0 bd 2a 75 3b 3e 28 e9 6e bd
       0.11469747 -0.10943074 0.18306413 -0.058327824
000330 f0 f9 8a 3d 00 98 11 b9 b5 18 8c 3d b4 9c 63 3c
       0.06785953 -0.00013884902 0.0684065 0.013892341
000340 32 43 16 3e 23 d9 81 3e ed 29 c1 bd cf 5c 50 3e
       0.1467407 0.25360975 -0.09431825 0.20347904
000350 54 b2 07 be 00 2a d4 bb c6 9a 60 3e d3 b6 27 3e
       -0.1325162 -0.0064747334 0.21934041 0.16378336
000360 61 38 0e 3d 9f 3d 18 3e f0 0d 57 3d 91 e8 cb bc
       0.034721736 0.14867257 0.052503526 -0.02489117
000370 50 5a cf bc a8 c4 5d bd d6 46 97 bd 13 8f 27 be
       -0.025311619 -0.054142624 -0.07386558 -0.16363172
000380 e8 3b a3 3c 36 21 2c be 7c 2d 4a 3e 1b 51 da bd
       0.019926026 -0.16809544 0.19743913 -0.10660001
000390 96 45 a2 bc d8 34 1c 3d 85 6d fc 3c 8d 4b a1 bd
       -0.019808572 0.038136333 0.030813942 -0.07875738
0003a0 e7 7e 17 3e 51 28 4c 3e e4 63 97 3c 3e 75 94 3e
       0.14794503 0.19937254 0.018480249 0.289957
0003b0 05 92 4c bd 54 1d 2a be 96 65 29 be 9c 86 53 3d
       -0.049943943 -0.1661275 -0.16542658 0.051642045
0003c0 18 3d 77 bd 0e ac 26 be 00 23 58 3c 5e 3c 22 3c
       -0.060360998 -0.16276571 0.013191938 0.009902088
0003d0 dc 5a f8 3d 81 7d 2c 3d 2e 78 a6 3d 27 b5 cb bd
       0.12126705 0.042111877 0.08128391 -0.099466614
0003e0 d0 26 fc bd 13 22 33 3e 15 da 1c bd 34 08 3c 3d
       -0.123120904 0.17493467 -0.038293917 0.04590626
0003f0 51 b1 08 3e 12 82 ae 3d 87 56 aa 3d 06 bd 64 bd
       0.13348891 0.08520903 0.08317285 -0.05584433

sequential_17/dense_65/MatMul f4 [1, 50]
000000 1b ee d2 3e 62 9f 96 bd 23 5b 7d 3e 56 2f a8 bd
       0.41197285 -0.073546186 0.24741797 -0.082121536
000010 5f 60 22 bd 26 0a 9d 3e d3 76 a1 be 81 be a2 be
       -0.039642688 0.30671805 -0.31535968 -0.31785968
000020 b0 16 dc 3e 70 81 4a bd 0a 88 97 3e 36 4d 9b 3e
       0.4298606 -0.049439847 0.29595977 0.30332345
000030 fc 16 bf 3d 1d 92 8a be f3 32 d0 3d e6 ac 19 3e
       0.09330556 -0.270646 0.10165968 0.15007362
000040 c8 64 6b be e8 ad 85 3d 85 0a 9c bd ea d8 9d 3e
       -0.22987664 0.065273106 -0.07619194 0.30829555
000050 de 53 2c be 7e 87 bb 3d 2c 02 0c 3e 1a d5 7d 3e
       -0.16828868 0.091567025 0.13672704 0.24788323
000060 e9 74 c7 3e de 76 11 3e ad 37 3a be e0 d4 11 3e
       0.38956383 0.142055 -0.18185301 0.14241362
000070 e9 05 38 be de 13 24 3e f4 dc bc 3d 96 6d c8 bd
       -0.17971005 0.16023204 0.09221831 -0.09786527
000080 48 c1 8b 3e 97 cf 26 be a5 61 57 3e e1 a5 8a be
       0.272959 -0.16290127 0.21033342 -0.2707968
000090 34 06 c5 bd 15 c1 04 3e f4 54 f3 3d f7 33 a3 be
       -0.09620324 0.1296428 0.11881438 -0.31875584
0000a0 ef 83 79 bc 54 76 48 3e ff 0a 77 bc be 3c ea 3d
       -0.015229209 0.19576389 -0.015078305 0.11437367
0000b0 c4 0c cb 3d 38 82 07 3d f2 e0 a9 be 2a 43 31 3e
       0.09914544 0.03308317 -0.33179432 0.17310777
0000c0 f4 f0 3e 3e 17 be 97 3e
       0.18646604 0.29637215
